src/main/resources/Nailong.onnx (onnx, 587495 bytes, 22 tensors)

conv1.weight f4 [32, 3, 5, 5]
-0.05986936 0.023040611 -0.036872003 0.072224915 -0.039417826 -0.072465345 -0.09796755 0.087994374
-0.057474576 0.06941882 -0.084055096 -0.011605857 0.06222785 0.027963955 0.00051634683 0.024136212
0.092077896 0.10763396 0.07297566 0.031925336 0.02537678 -0.054574862 -0.006673215 0.0025599787
-0.12021025 -0.04137926 0.026493946 -0.05136204 -0.0776541 0.12266533 -0.041831646 0.022451838
-0.0489917 -0.07611167 -0.016247224 -0.06270321 0.10832309 0.104074396 -0.09452603 0.013497038
0.09457697 -0.029037993 0.06776512 -0.040811203 -0.059535824 -0.12111214 0.102797695 -0.06697481
0.038064662 -0.08884729 0.06858965 -0.100070804 -0.11650202 -0.047901034 -0.090172 0.08699908
0.012149798 -0.09063138 -0.039912753 -0.10489978 0.06773103 -0.024598945 0.022959333 -0.066720724
-0.110920936 0.089838624 0.017660763 0.08343396 -0.05213414 -0.040586244 -0.003425813 -0.094444476
0.0043232623 0.1152181 -0.05793276 0.090768985 0.08956803 -0.02871223 0.079531364 -0.034994308
0.11012452 0.05017844 -0.050176427 -0.1201141 -0.05082637 0.004879478 0.036864754 0.04147132
-0.09642068 -0.027036246 0.061853357 -0.047792643 0.12754117 -0.05086749 -0.10743011 0.036875352
0.025868092 -0.034665108 0.024507113 0.032032046 -0.04112258 -0.06317796 -0.05599589 -0.08294086
0.032800756 0.031190893 0.0032271259 0.05733517 -0.007675033 -0.06438388 -0.008297856 -0.002803937
-0.013244739 -0.0943114 -0.070054635 0.07987786 0.008831912 0.014169728 0.10290865 -0.024346713
-0.113025546 0.031441838 -0.08256631 0.07184037 -0.045274924 -0.06182993 -0.10123121 -0.014433843
0.10453617 0.0552395 -0.002858447 0.07000673 0.070196696 -0.09538607 0.017501205 -0.007248861
0.08301711 0.01623891 0.085095815 -0.032964934 -0.108001254 0.083445884 0.016003696 -0.025477968
-0.011287378 -0.035324294 0.018977161 0.12824896 -0.08293519 -0.0131239295 0.02422923 -0.069645226
0.1165948 0.12314742 -0.04049776 0.0069614467 0.003016182 0.14119639 -0.01988227 0.004921221
-0.024453137 0.03082162 0.084323965 -0.0036435712 -0.046761964 -0.050822236 0.079847254 0.027790776
0.026646918 0.058866534 -0.03725837 -0.07325125 0.07483851 -0.10470215 0.05411716 -0.05764182
-0.054353964 -0.06445243 -0.06674004 -0.0633741 -0.019447552 0.039158784 -0.11358036 0.048085693
-0.010460464 0.075331755 -0.124324955 -0.1219133 -0.015874311 0.03098363 -0.08689037 0.02131556
-0.02311913 -0.007576548 0.1133043 -0.05814873 0.0009012198 0.06324409 -0.032415427 0.011959358
0.13243827 0.04409656 -0.077878535 -0.027439237 0.103190914 -0.0050476594 -0.035370547 0.03738296
0.0016209169 0.07188086 0.051624157 0.08691337 -0.09510958 -0.10635188 -0.009484083 0.040292926
-0.06389635 0.0075440495 -0.089443445 -0.064327344 0.058004916 0.13335231 -0.055500865 -0.08783501
-0.017169397 0.058087062 -0.015924899 0.14029923 0.03997743 0.056713134 0.042243853 0.11570345
-0.015381545 0.048426677 0.062537715 0.11437705 0.06764453 -0.062500305 -0.042121 0.02072038
-0.03300125 0.03567998 0.055740427 -0.0039624046 -0.084519245 0.054030087 0.025965935 -0.109236486
-0.03305874 -0.09352022 -0.038276926 0.08655179 -0.044977505 -0.020828541 0.0066819894 -0.04767957
00000000: 9339 75bd aabf bc3c 1907 17bd a8ea 933d
00000010: 9674 21bd b668 94bd 36a3 c8bd 6536 b43d
00000020: 766a 6bbd 742b 8e3d 1425 acbd 7e26 3ebc
00000030: a1e2 7e3d aa14 e53c 735b 073a 4eb9 c53c
00000040: 5693 bc3d 326f dc3d 4374 953d 24c4 023d
00000050: f7e2 cf3c e489 5fbd fcaa dabb 51c5 273b
00000060: cb30 f6bd 4d7d 29bd d509 d93c 0161 52bd
00000070: 1d09 9fbd f637 fb3d a957 2bbd ebec b73c
00000080: 85ab 48bd 6fe0 9bbd e618 85bc 8a6a 80bd
00000090: 7fd8 dd3d f524 d53d dd96 c1bd ae22 5d3c
000000a0: 92b1 c13d 16e1 edbc 70c8 8a3d a629 27bd
000000b0: d6db 73bd a409 f8bd 9987 d23d 172a 89bd
000000c0: b1e9 1b3d 91f5 b5bd bb78 8c3d ecf1 ccbd
000000d0: 9c98 eebd e033 44bd 19ac b8bd 932c b23d
000000e0: f20f 473c f29c b9bd 8e7b 23bd b2d5 d6bd
000000f0: 91b6 8a3d ba83 c9bc 3615 bc3c e0a4 88bd
00000100: 842a e3bd 50fd b73d 4ead 903c 6ddf aa3d
00000110: 9c8a 55bd c33d 26bd 9b83 60bb 1b6c c1bd
00000120: 27aa 8d3b 78f7 eb3d e74a 6dbd 17e5 b93d
00000130: 716f b73d e935 ebbc 57e1 a23d 3156 0fbd
00000140: f788 e13d e887 4d3d cc85 4dbd 62fe f5bd
00000150: 502f 50bd 07e4 9f3b 7fff 163d d5dd 293d
00000160: 3578 c5bd 1e7b ddbc f259 7d3d 38c2 43bd
00000170: 279a 023e 6e5a 50bd 5104 dcbd 9c0a 173d
00000180: 52e9 d33c 00fd 0dbd 24c3 c83c 0934 033d
00000190: 2770 28bd 7263 81bd f25b 65bd e6dc a9bd
000001a0: 165a 063d 0b84 ff3c 307e 533b 49d8 6a3d
000001b0: d87e fbbb b2db 83bd bbf3 07bc 42c2 37bb
000001c0: 7600 59bc 5626 c1bd ce78 8fbd 0197 a33d
000001d0: b9b3 103c 2628 683c c5c1 d23d c272 c7bc
000001e0: f079 e7bd 28c9 003d 8718 a9bd 0b21 933d
000001f0: 3372 39bd 6141 7dbd 4f52 cfbd ed7b 6cbc
00000200: 0f17 d63d d042 623d c854 3bbb b05f 8f3d
00000210: 49c3 8f3d c659 c3bd b05e 8f3c da87 edbb
00000220: e004 aa3d 7607 853c b746 ae3d 3d06 07bd
00000230: c32f ddbd ade5 aa3d 2f1a 833c 2cb7 d0bc
00000240: b2ee 38bc 35b0 10bd fe75 9b3c b253 033e
00000250: edd9 a9bd c005 57bc 617c c63c 28a2 8ebd
00000260: 41c9 ee3d b734 fc3d fbe0 25bd d91c e43b
00000270: 23ab 453b c995 103e 24e0 a2bc 3242 a13b
00000280: f251 c8bc 9f7d fc3c 0bb2 ac3d fbc8 6ebb
00000290: 7989 3fbd fa2a 50bd f586 a33d 7ba9 e33c
000002a0: a34a da3c 091e 713d 3c9c 18bd c004 96bd
000002b0: ef44 993d 156e d6bd f5a9 5d3d d419 6cbd
000002c0: 43a2 5ebd a3ff 83bd 01af 88bd 48ca 81bd
000002d0: 7950 9fbc f664 203d d29c e8bd 81f5 443d
000002e0: 5e62 2bbc 8947 9a3d 159e febd aead f9bd
000002f0: d80a 82bc 62d1 fd3c 94f3 b1bd f89d ae3c
00000300: 5464 bdbc b144 f8bb 160c e83d 5d2d 6ebd
00000310: d63f 6c3a 1e86 813d 0ac6 04bd 2ff1 433c
00000320: e69d 073e 989e 343d c87e 9fbd 40c8 e0bc
00000330: c255 d33d d666 a5bb b5e0 10bd e01e 193d
00000340: f274 d43a 4636 933d da73 533d a3ff b13d
00000350: d0c8 c2bd 04cf d9bd 2163 1bbc 320a 253d
00000360: 17dc 82bd 1334 f73b 202e b7bd 0ebe 83bd
00000370: 9096 6d3d 828d 083e e054 63bd d7e2 b3bd
00000380: d6a6 8cbc b3ec 6d3d ef74 82bc 9aaa 0f3e
00000390: 60bf 233d 084c 683d e407 2d3d eef5 ec3d
000003a0: e002 7cbc 0d5b 463d c613 803d 843e ea3d
000003b0: 3789 8a3d 2900 80bd 1287 2cbd c9bd a93c
000003c0: 522c 07bd 2c25 123d 1350 643d 0fd7 81bb
000003d0: 6d18 adbd a74e 5d3d 83b6 d43c 61b7 dfbd
000003e0: 9a68 07bd 8787 bfbd 44c8 1cbd 1142 b13d
000003f0: 553a 38bd 9ea0 aabc 97f4 da3b a74b 43bd

conv1.bias f4 [32]
0.06066356 -0.14098202 -0.08570763 0.009959398 0.071668826 -0.041144144 0.026041755 -0.09438678
-0.11781563 0.0610046 0.05764722 0.0804866 0.076503396 -0.07733468 -0.13186328 0.0155744655
-0.08141872 0.083372205 -0.051163167 0.08609176 0.08497159 -0.007854172 0.10205025 -0.0016057169
-0.007386646 -0.057917506 -0.039267067 -0.050813522 -0.072759196 -0.022455497 0.11010385 -0.025923736
00000000: 5a7a 783d 975d 10be 7b87 afbd be2c 233c
00000010: 1bc7 923d c386 28bd 8555 d53c db4d c1bd
00000020: 5249 f1bd f6df 793d 7e1f 6c3d 29d6 a43d
00000030: d0ad 9c3d a561 9ebd 2b07 07be 0b2c 7f3c
00000040: dcbe a6bd 0cbf aa3d 7890 51bd e050 b03d
00000050: 9605 ae3d c9ae 00bc b9ff d03d eb76 d2ba
00000060: ad0b f2bb e83a 6dbd 81d6 20bd d721 50bd
00000070: c602 95bd 97f4 b7bc 217e e13d 045e d4bc

bn1.weight f4 [32]
0.99637115 0.9982853 0.9984971 0.9688117 1.0553308 0.99580485 1.0199462 0.99972916
0.935697 0.99601614 0.95312464 0.96507365 0.976352 0.9631716 1.0254409 1.0227324
1.028513 0.9821902 1.0159597 0.9133159 1.0344287 0.91259944 0.8927551 1.0264919
0.9804811 1.0395626 1.0243025 1.0001202 0.9921516 0.94296247 1.0236361 0.95860034
00000000: 2e12 7f3f a08f 7f3f 829d 7f3f 0b04 783f
00000010: 1415 873f 11ed 7e3f 998d 823f 40ee 7f3f
00000020: d789 6f3f eafa 7e3f faff 733f 110f 773f
00000030: 34f2 793f 6a92 763f a641 833f e5e8 823f
00000040: 50a6 833f d170 7b3f f80a 823f 12cf 693f
00000050: 2968 843f 1ea0 693f 998b 643f 1664 833f
00000060: cf00 7b3f 6310 853f 581c 833f f003 803f
00000070: a6fd 7d3f fd65 713f 8206 833f d566 753f

bn1.bias f4 [32]
-0.0767419 0.093572706 -0.027329719 -0.071144015 0.15935533 0.1091439 0.07298126 0.10565997
0.054565582 -0.005460901 0.007688737 0.0028681047 -0.06701343 -0.024105737 0.21599855 0.16862345
0.26110992 -0.00055204367 0.083628185 -0.106585115 0.099151455 -0.110204235 -0.033771448 0.111080185
-0.057304554 0.047608227 0.1794456 0.13572355 0.036303114 -0.09680137 -0.028118368 0.004082201
00000000: db2a 9dbd 0ca3 bf3d 93e2 dfbc f4b3 91bd
00000010: 0b2e 233e d686 df3d 3377 953d 4164 d83d
00000020: 2980 5f3d 5cf1 b2bb cdf1 fb3b d0f6 3b3b
00000030: 563e 89bd 6579 c5bc b92e 5d3e a0ab 2c3e
00000040: 33b0 853e 06b7 10ba 4145 ab3d 4c49 dabd
00000050: eb0f cb3d c2b2 e1bd ee53 0abd 027e e33d
00000060: 2eb8 6abd d800 433d 96c0 373e 1dfb 0a3e
00000070: 93b2 143d cc3f c6bd 7e58 e6bc fcc3 853b

bn1.running_mean f4 [32]
-0.15114942 -0.1039075 -0.12807038 0.057800077 0.09104783 -0.069544375 -0.0024019757 -0.042877562
-0.124343306 0.10255688 0.074174084 0.24773793 0.1087635 0.009752816 -0.10821148 0.07555438
-0.043860268 0.016260717 -0.023078168 0.41921294 0.11604618 0.16464812 0.33852065 0.010915817
-0.31651017 -0.05160188 -0.02436612 -0.0078105945 -0.14369777 0.07844148 0.06252458 0.078668065
00000000: eac6 1abe 75cd d4bd e224 03be c6bf 6c3d
00000010: 4977 ba3d 486d 8ebd 776a 1dbb 62a0 2fbd
00000020: b4a7 febd 5709 d23d 95e8 973d 03af 7d3e
00000030: 66bf de3d 46ca 1f3c fb9d ddbd 41bc 9a3d
00000040: d3a6 33bd 3235 853c 6d0e bdbc 14a3 d63e
00000050: 9fa9 ed3d 8499 283e 9452 ad3e 41d8 323c
00000060: 9f0d a2be 7e5c 53bd 759b c7bc 04f0 ffbb
00000070: 8225 13be eda5 a03d e30c 803d b91c a13d

bn1.running_var f4 [32]
0.036552027 0.010326569 0.0066629406 0.020188661 0.0064522037 0.0047194217 0.0047274926 0.0034605772
0.004595755 0.0077071623 0.009963447 0.010756233 0.009476438 0.005982421 0.011519141 0.0062421393
0.00328167 0.025270393 0.0069349646 0.023639735 0.010306513 0.018427216 0.021204244 0.0033188788
0.045976583 0.006675458 0.003310236 0.028759358 0.020551648 0.007607515 0.017636176 0.033853177
00000000: 94b7 153d c530 293c cc54 da3b b162 a53c
00000010: 026d d33b 61a5 9a3b 15e9 9a3b daca 623b
00000020: fd97 963b 5d8c fc3b ba3d 233c e93a 303c
00000030: 1043 1b3c 2f08 c43b c7ba 3c3c dc8a cc3b
00000040: 4911 573b db03 cf3c b33e e33b 1ea8 c13c
00000050: a6dc 283c acf4 963c 86b4 ad3c 8c81 593b
00000060: f151 3c3d cdbd da3b 8bf0 583b bf98 eb3c
00000070: ee5b a83c 7648 f93b be79 903c a1a9 0a3d

conv2.weight f4 [32, 32, 5, 5]
-0.029774696 -0.06687583 -0.0377986 -0.016899914 -0.011370844 0.053388074 -6.1932456e-06 -0.03175376
-0.017220743 -0.021744732 -0.011810134 -0.030813826 0.0045982613 -0.04088205 -0.0026023623 -0.03975045
0.0143426955 -0.019302329 0.005078455 -0.026811283 0.025383154 0.040390078 -0.04899558 -0.051645096
-0.039652128 -0.022976758 0.009178192 -0.02173114 -0.0020196014 0.017149372 0.034896005 0.014559943
0.031234596 0.07075974 -0.009338509 0.011691813 0.04831006 0.07452993 0.05480327 -0.0031196943
-0.039595556 0.008806279 0.06792572 0.04838561 0.015681218 0.027979817 0.020791179 0.01527349
-0.0015808268 0.004318671 -0.03830849 -0.032633144 -0.012135738 0.0029123933 -0.07489545 0.014234885
-0.016298566 0.019811634 0.041792605 -0.0100270575 -0.0076685683 0.02177848 -0.031239966 -0.047736943
-0.048828598 0.01880567 0.027025145 -0.052395284 0.00088386313 0.0047774673 -0.013099868 -0.013261899
-0.007574672 -0.017522538 -0.041795067 -0.018695205 0.025825173 0.018768003 0.01577309 -0.044509634
0.026557645 0.030537942 0.027816568 0.019074198 0.023305835 0.0007678108 -0.004672844 -0.0076896856
0.024455398 0.02098706 -0.025346948 -0.023284355 -0.029018203 0.00042803615 -0.02837407 0.0056612557
-0.058617376 -0.022822892 0.010223657 -0.000275196 0.026177326 -0.03616898 -0.01620228 0.023516288
0.006295344 -0.060397647 0.0313602 0.024484623 -0.03755082 -0.030644072 0.028510267 0.0007940092
-0.024456078 -0.032740653 -0.025778126 0.03275812 -0.023615655 -0.042146582 -0.024424966 0.007985169
0.051139217 -0.043347493 -0.037216574 -0.022797216 0.0389984 0.030304547 -0.0051145586 0.008130771
0.019052252 -0.03635136 -0.0021775435 0.03137468 0.0023632084 0.029967993 0.011896491 0.01265512
0.015689068 0.04483841 -0.005497821 0.015134447 0.05220195 0.0011447464 -0.0023557849 -0.019827276
-0.03489906 0.043606352 0.027308222 -0.019697944 -0.04237353 -0.08658782 -0.044426817 -0.0037018198
-0.023208845 -0.009208531 -0.039451342 0.0056338953 -0.0416771 0.010179508 0.0016824065 -0.004638147
-0.008950511 -0.006065091 -0.017391913 -0.016390754 -0.009452305 0.027601108 -0.0038568315 -0.014304795
-0.0028702922 -0.0049952455 0.012641636 0.0060715806 -0.021593904 -0.0377323 0.017708952 0.0149511965
-0.025448374 0.0074479906 0.00088580785 -0.024706416 -0.031389307 -0.003124664 -0.022439977 0.042541005
0.020535246 -0.02498527 -0.032978427 0.033294644 -0.0050576194 -0.002826587 -0.020552821 0.020646807
0.023212468 0.03989475 -0.031494245 -0.0008928489 0.018420784 0.026797075 0.017948827 0.012631973
-0.0005681202 0.014533943 0.015166667 0.012708394 0.051548563 -0.011349257 0.0055513233 0.0049956054
-0.036985267 -0.0016260156 -0.042238303 0.008893257 -0.009022977 -0.029796928 -0.008478693 -0.007844136
-0.04511492 -0.0062154722 -0.033517625 -0.026868401 -0.015529506 0.029539388 0.010658326 0.0027091205
-0.0096841175 0.022423336 0.02971409 -0.022608316 0.024505235 -0.025198279 -0.00972134 -0.008473972
-0.035297535 0.0011723835 0.043145806 -0.013318287 0.012840171 0.008268834 0.033240765 0.03627703
-0.022889987 -0.023070985 0.023859622 -0.010030162 -0.008104797 -0.012477166 -0.0506086 -0.015983634
0.02118332 -0.04046217 -0.031224154 -0.016510138 0.0023726365 0.03526605 0.040227164 0.024457917
00000000: 10ea f3bc 32f6 88bd b4d2 1abd b071 8abc
00000010: c74c 3abc 74ad 5a3d 93cf cfb6 3b10 02bd
00000020: 8412 8dbc 0222 b2bc 4b7f 41bc 476d fcbc
00000030: 03ad 963b f073 27bd 658c 2abb 5ed1 22bd
00000040: a0fd 6a3c eb1f 9ebc 2b69 a63b 56a3 dbbc
00000050: 55f0 cf3c 1170 253d 97af 48bd cf89 53bd
00000060: 456a 22bd c139 bcbc 2160 163c 8105 b2bc
00000070: 4a5b 04bb d77c 8c3c 1def 0e3d d48c 6e3c
00000080: b2df ff3c 7cea 903d 8c00 19bc 058f 3f3c
00000090: c5e0 453d 26a3 983d 6579 603d c973 4cbb
000000a0: f32e 22bd 3648 103c a41c 8b3d fd2f 463d
000000b0: e675 803c ee35 e53c 4352 aa3c a93d 7a3c
000000c0: bf33 cfba a383 8d3b 5de9 1cbd 55aa 05bd
000000d0: f9d4 46bc dadd 3e3b c962 99bd 6f39 693c
000000e0: 9284 85bc 024c a23c b92e 2b3d 8748 24bc
000000f0: 9d48 fbbb c868 b23c f5ea ffbc d087 43bd
00000100: 7f00 48bd 590e 9a3c d663 dd3c 709c 56bd
00000110: 0db3 673a 4d8c 9c3b d4a0 56bc 7048 59bc
00000120: f434 f8bb 6d8b 8fbc 4e31 2bbd b026 99bc
00000130: 508f d33c 5bbf 993c 9136 813c bc4f 36bd
00000140: 6b8f d93c b52a fa3c 92df e33c 7e41 9c3c
00000150: e1eb be3c e946 493a a81e 99bb c2f9 fbbb
00000160: b056 c83c 0eed ab3c 67a4 cfbc d5be bebc
00000170: 95b7 edbc 0a6a e039 bd70 e8bc 0e82 b93b
00000180: c618 70bd 13f7 babc 2081 273c 2f48 90b9
00000190: d571 d63c ed25 14bd a5ba 84bc 3ba5 c03c
000001a0: 2c49 ce3b 8663 77bd 8e73 003d fa93 c83c
000001b0: e3ce 19bd 4709 fbbc 5d8e e93c 0e25 503a
000001c0: 1d58 c8bc 101b 06bd a62c d3bc 612d 063d
000001d0: 9e75 c1bc e5a1 2cbd de16 c8bc 3ad4 023c
000001e0: 5b77 513d 248d 31bd 6870 18bd 3ac1 babc
000001f0: c9bc 1f3d 3e41 f83c 0798 a7bb ed36 053c
00000200: 7813 9c3c 2ae5 14bd 1eb5 0ebb bd82 003d
00000210: 0fe0 1a3b 707f f53c 80e9 423c 6c57 4f3c
00000220: 5c86 803c 7ba8 373d 1127 b4bb 79f6 773c
00000230: b6d1 553d 510b 963a 8363 1abb d06c a2bc
00000240: 51f2 0ebd 939c 323d 7eb5 df3c 955d a1bc
00000250: de8f 2dbd f454 b1bd e5f8 35bd 3b9a 72bb
00000260: 7a20 bebc 61df 16bc bb97 21bd 8a9c b83b
00000270: 9bb5 2abd f3c7 263c 3284 dc3a 99fb 97bb
00000280: 2aa5 12bc acbd c6bb 7c79 8ebc e745 86bc
00000290: d7dd 1abc b81b e23c e5c2 7cbb a95e 6abc
000002a0: 831b 3cbb 28af a3bb dd1e 4f3c 1cf4 c63b
000002b0: b3e5 b0bc 2f8d 1abd 5d12 913c ddf5 743c
000002c0: 1c79 d0bc 460e f43b 8f35 683a 1c65 cabc
000002d0: 1392 00bd 2ac7 4cbb 0bd4 b7bc 7a3f 2e3d
000002e0: 8839 a83c e9ad ccbc 6314 07bd f75f 083d
000002f0: 63ba a5bb 433e 39bb 645e a8bc 7e23 a93c
00000300: 1328 be3c ad68 233d 1c00 01bd 130e 6aba
00000310: 2fe7 963c 8a85 db3c 6b09 933c 56f6 4e3c
00000320: e7ed 14ba c61f 6e3c 9d7d 783c de36 503c
00000330: 9624 533d 3cf2 39bc e0e7 b53b 2db2 a33b
00000340: dd7d 17bd 0820 d5ba 1202 2dbd 06b5 113c
00000350: 1cd5 13bc b018 f4bc 37ea 0abc b184 00bc
00000360: 6cca 38bd 29ab cbbb c749 09bd 1f1b dcbc
00000370: 786f 7ebc 96fc f13c 42a0 2e3c 808b 313b
00000380: 22aa 1ebc 25b1 b73c f76a f33c 1335 b9bc
00000390: 34bf c83c 9f6c cebc 4146 1fbc 6ad6 0abc
000003a0: 2694 10bd aaaa 993a a8b9 303d f234 5abc
000003b0: 955f 523c 017a 073c 7827 083d 3997 143d
000003c0: c883 bbbc 5dff bcbc 4175 c33c 8c55 24bc
000003d0: fcc9 04bc 076d 4cbc f74a 4fbd 1cf0 82bc
000003e0: a488 ad3c a9bb 25bd ccc9 ffbc 4540 87bc
000003f0: 3c7e 1b3b 2273 103d 3dc5 243d f85b c83c

conv2.bias f4 [32]
-0.0057078404 -0.023307348 -0.033281773 0.007849482 0.02565566 0.010217239 0.031124005 0.023754451
0.015656492 -0.021700898 0.0029602207 0.030542552 0.0025737006 -0.010332073 0.006914345 0.029542843
0.029002191 0.018939678 0.010531444 -0.0094038565 0.00032790142 0.050086215 -0.039048422 -0.0042654476
-0.01888207 0.00027393163 -0.013767874 -0.025628312 -0.035596166 -0.009002969 -0.031307098 -0.025704065
00000000: d608 bbbb 0def bebc 7852 08bd 1d9b 003c
00000010: d22b d23c 3566 273c c5f7 fe3c b298 c23c
00000020: 0b42 803c 15c6 b1bc 4300 423b 6034 fa3c
00000030: 88ab 283b db47 29bc bb91 e23b d503 f23c
00000040: 0196 ed3c 6227 9b3c 148c 2c3c a212 1abc
00000050: 2fea ab39 3427 4d3d 3df1 1fbd 2bc5 8bbb
00000060: 92ae 9abc 7b9e 8f39 a692 61bc 77f2 d1bc
00000070: 49cd 11bd 3081 13bc df3b 00bd 5591 d2bc

bn2.weight f4 [32]
1.017373 1.0292813 1.0068976 1.0021929 1.0365442 1.0524865 0.9798663 1.0002532
1.0178692 1.0398769 0.9837432 0.9608104 0.9887905 0.99900925 0.98351073 0.98719066
1.022522 0.9846688 0.9996823 1.0569384 1.0307388 0.96955556 0.94283086 0.99899703
0.97654897 0.96369696 1.0463016 1.0020081 0.954912 0.9994131 0.997482 0.9720767
00000000: 4739 823f 7dbf 833f 05e2 803f db47 803f
00000010: 7bad 843f e1b7 863f 85d8 7a3f 4c08 803f
00000020: 8a49 823f b01a 853f 98d6 7b3f acf7 753f
00000030: 6021 7d3f 12bf 7f3f 5cc7 7b3f 87b8 7c3f
00000040: 00e2 823f 4113 7c3f 2eeb 7f3f c249 873f
00000050: 40ef 833f cb34 783f 5d5d 713f 45be 7f3f
00000060: 1dff 793f d8b4 763f 36ed 853f cd41 803f
00000070: 1d75 743f 89d9 7f3f fb5a 7f3f 05da 783f

bn2.bias f4 [32]
-0.021323824 -0.05626028 -0.05065872 -0.025434187 -0.06382729 -0.014747859 -0.068843685 -0.04649364
-0.05137738 -0.07507461 -0.055901844 -0.06526173 -0.022181595 -0.007731288 0.01050544 -0.049889017
-0.025448624 -0.04344117 0.007540735 0.0017589221 -0.05001127 -0.07670809 -0.0066044456 -0.0725028
-0.042668078 -0.040206622 -0.044675015 -0.06496312 -0.017640939 -0.0788535 -0.00029562955 -0.013863551
00000000: 4daf aebc 2e71 66bd 857f 4fbd 5b5b d0bc
00000010: e2b7 82bd 01a1 71bc ebfd 8cbd 1d70 3ebd
00000020: 1671 52bd b8c0 99bd 55f9 64bd f1a7 85bd
00000030: 2db6 b5bc bf56 fdbb 021f 2c3c 6d58 4cbd
00000040: a279 d0bc 5eef 31bd 4518 f73b a28b e63a
00000050: 9ed8 4cbd 2219 9dbd 1b6a d8bb 597c 94bd
00000060: b9c4 2ebd b3af 24bd 26fd 36bd 620b 85bd
00000070: bb83 90bc f27d a1bd bafe 9ab9 f323 63bc

bn2.running_mean f4 [32]
-0.46345377 -0.31116405 -0.12362423 -0.097973324 -0.026214361 -0.30064288 0.17269678 -0.2782856
-0.7871646 -0.53146577 -0.4104413 -0.11134116 -0.090933844 -0.14394748 -0.2650862 -0.36334768
-0.09403226 -0.12896919 -0.022525739 -0.39806548 -0.32413125 -0.14684434 0.048477717 -0.24293573
0.6229531 0.05926435 -0.43380883 0.018593805 0.020969622 -0.28009704 -0.34701413 0.021966243
00000000: d049 edbe e550 9fbe b32e fdbd 3da6 c8bd
00000010: 80bf d6bc dded 99be 6dd7 303e 737b 8ebe
00000020: 9f83 49bf 240e 08bf 5d25 d2be d606 e4bd
00000030: 863b babd f866 13be 61b9 87be b508 babe
00000040: fc93 c0bd 8010 04be e687 b8bc 3dcf cbbe
00000050: 88f4 a5be 5d5e 16be 9290 463d 25c4 78be
00000060: db79 1f3f 2dbf 723d 311c debe 0952 983c
00000070: 7cc8 ab3c e168 8fbe d6ab b1be 8df2 b33c

bn2.running_var f4 [32]
0.45869398 0.51650697 0.34861827 0.36474434 0.48106202 0.5170638 0.46961656 0.26774576
0.6791228 0.5255543 0.42529577 0.5187709 0.3481128 0.39396128 0.29267982 0.62650293
0.61346346 0.4593013 0.36438665 0.53800553 0.39712173 0.2932716 0.33743817 0.3765856
0.41442284 0.3261593 0.44058466 0.24927554 0.24592382 0.59250563 0.4419043 0.4724933
00000000: f0d9 ea3e cd39 043f 187e b23e c5bf ba3e
00000010: c34d f63e 4b5e 043f 9571 f03e f915 893e
00000020: feda 2d3f ba8a 063f 5ec0 d93e 2bce 043f
00000030: d73b b23e 4bb5 c93e 21da 953e 7f62 203f
00000040: f10b 1d3f 8a29 eb3e e390 ba3e bbba 093f
00000050: 8a53 cb3e b227 963e b2c4 ac3e d4cf c03e
00000060: 3b2f d43e 5afe a63e 5094 e13e 1642 7f3e
00000070: 74d3 7b3e 73ae 173f 4841 e23e a4ea f13e

conv3.weight f4 [64, 32, 5, 5]
-0.006738446 0.044260606 0.01799355 -0.0053972285 0.007177547 -0.02257506 0.004315767 0.03247741
0.024372304 -0.03468829 -0.04083529 -0.005512327 -0.034555893 0.04452249 0.01424058 -0.02830151
-0.0550419 0.017229084 -0.023802806 -0.004159678 -0.055450622 0.013593583 -0.051161762 -0.027238272
-0.029434636 0.027381824 -0.057558443 4.7003792e-05 0.025274403 -0.019325592 0.0048042797 0.008858434
-0.0562283 0.0020091648 -0.0027841753 -0.017331766 -0.033315092 -0.036246005 -0.014996983 0.05549801
-0.019627126 -0.0051775975 -0.052745573 -0.023457171 0.006812607 0.014069101 0.012223398 -0.031267878
-0.027922342 0.026110629 -0.047728997 -0.0062394124 -0.029954799 -0.00052829226 -0.012538645 0.03101058
0.015035344 -0.03528879 0.049005106 0.008238279 0.03759004 -0.0075223316 -0.010890678 -0.030922689
-0.021617565 0.028893663 0.03079903 -0.042311236 0.0066677956 0.02906604 0.014042275 0.028956046
-0.016496869 0.008529405 -0.01464842 -0.02498186 0.0047893296 -0.004822454 -0.0037290296 -0.038353425
-0.012050914 -0.0044897427 -0.029717984 0.028702365 -0.007575372 -0.027796004 0.011405664 -0.05185944
-0.0008554651 0.014380664 -0.024437765 -0.03605646 -0.06530879 -0.0034671514 0.0012205098 0.041525945
0.004258775 0.029376224 0.0080246385 0.04185245 0.012660597 0.07872111 -0.020256225 -0.052864444
0.030246709 -0.022099331 -0.033681232 -0.02847159 -0.042205032 0.0055553745 -0.019804616 -0.040177666
-0.010282637 -0.00023163129 0.012310203 -0.018986573 -0.044222366 0.011953696 -0.05079768 -0.010519108
-0.05540892 -0.040848494 -0.022555882 -0.047523208 -0.0065484857 0.024640182 -0.032815773 0.015277202
0.014630753 0.021913169 -0.012056304 -0.022378424 0.019970367 0.01966203 0.020231467 -0.008425441
-0.0075051636 0.005184036 0.029398208 -0.008728582 0.023130277 0.014896772 -0.027618151 -0.018632788
-0.050538905 0.02322643 0.04809049 0.04308198 -0.03157143 0.031621136 -0.033776533 0.004254464
0.032816138 -0.009288309 -0.0075462013 -0.026517542 -0.015469875 -0.008461798 -0.009415343 0.0047592856
0.07506498 0.057942342 -0.00072218396 -0.002392499 0.017999215 0.048824675 0.004819349 -0.10931297
-0.033057407 0.0008212644 0.012654242 0.00043266302 0.0018067198 -0.050070778 -0.00048386847 0.010184753
-0.017252838 0.032951012 0.024784774 0.050811943 -0.005563349 0.05944315 -0.015256129 0.02001992
-0.0073691583 -0.02404463 -0.0388401 0.031159038 0.022164935 0.039550904 0.033602968 -0.052233443
0.020083671 0.035217363 0.035674546 -0.0074196593 0.0032454706 -0.0059941364 -0.004771745 -0.036407303
0.0029110669 0.015248862 -0.03626511 -0.02086519 0.05415633 -0.0012104046 -0.0036962985 -0.045564752
0.00954254 -0.012188172 -0.062914684 -0.0105342865 -0.019901864 -0.027860062 0.019047402 0.0080891745
0.00065185764 0.014130013 -0.008579054 0.034597367 -0.014412308 0.017042821 0.030313931 -0.038517486
-0.0020644001 0.044750806 -0.0077973185 -0.031094296 -0.04845575 0.036123402 0.03851903 -0.011804759
7.4575844e-05 0.008216331 0.016167631 0.008597195 0.047804777 -0.004006119 0.050958056 0.019006921
-0.036049567 0.0076055857 -0.020439979 0.06713094 -0.0243381 -0.00048002278 0.040283807 -0.0620459
-0.043537743 -0.117755495 -0.03978705 -0.0027645526 -0.012196179 0.035726134 -0.0100831585 -0.0032629631
00000000: 2fce dcbb 9c4a 353d 3667 933c 3cdb b0bb
00000010: a131 eb3b 55ef b8bc 476b 8d3b 0807 053d
00000020: 6da8 c73c 4f15 0ebd e842 27bd c0a0 b4bb
00000030: 7b8a 0dbd 375d 363d 5251 693c 91d8 e7bc
00000040: 9e73 61bd 0224 8d3c 1afe c2bc e84d 88bb
00000050: 3120 63bd 9fb7 5e3c ff8e 51bd cc22 dfbc
00000060: e820 f1bc d94f e03c 67c2 6bbd f025 4538
00000070: 440c cf3c b450 9ebc 386d 9d3b f722 113c
00000080: a54f 66bd 31ac 033b b676 36bb 59fb 8dbc
00000090: 6875 08bd b176 14bd e8b5 75bc e251 633d
000000a0: 11c9 a0bc d6a8 a9bb be0b 58bd 4129 c0bc
000000b0: 4a3c df3b 1682 663c a644 483c bf12 00bd
000000c0: 65bd e4bc f5e5 d53c 7b7f 43bd fc73 ccbb
000000d0: c463 f5bc 187d 0aba e46e 4dbc e609 fe3c
000000e0: ce56 763c fa8a 10bd 94b9 483d d9f9 063c
000000f0: 04f8 193d e47d f6bb d06e 32bc 9451 fdbc
00000100: 5217 b1bc 67b2 ec3c 3f4e fc3c 8c4e 2dbd
00000110: 867d da3b e71b ee3c 9211 663c 3b35 ed3c
00000120: 7124 87bc ebbe 0b3c edff 6fbc c2a6 ccbc
00000130: cfef 9c3b ad05 9ebb bc62 74bb 7b18 1dbd
00000140: 3271 45bc b11e 93bb 2173 f3bc 3921 eb3c
00000150: d33a f8bb 72b4 e3bc d2de 3a3c 906a 54bd
00000160: 4b41 60ba e09c 6b3c b531 c8bc f0af 13bd
00000170: 9dc0 85bd 2639 63bb 83f9 9f3a 1c17 2a3d
00000180: 328d 8b3b 68a6 f03c c679 033c 7a6d 2b3d
00000190: 656e 4f3c 8938 a13d 62f0 a5bc 6388 58bd
000001a0: f2c7 f73c a809 b5bc 55f5 09bd 403d e9bc
000001b0: 2fdf 2cbd dc09 b63b 4a3d a2bc 5691 24bd
000001c0: 8178 28bc 0de2 72b9 bcb0 493c bb89 9bbc
000001d0: 8322 35bd 6fd9 433c 3a11 50bd 5658 2cbc
000001e0: 77f4 62bd c050 27bd 1dc7 b8bc b2a7 42bd
000001f0: ae94 d6bb 35da c93c d569 06bd 3b4d 7a3c
00000200: d3b5 6f3c 3f83 b33c ce87 45bc f552 b7bc
00000210: e598 a33c 4412 a13c 76bc a53c dc0a 0abc
00000220: e0ed f5bb d9de a93b 83d4 f03c 5402 0fbc
00000230: b57b bd3c 9711 743c 763f e2bc caa3 98bc
00000240: e201 4fbd 5b45 be3c 89fa 443d bb76 303d
00000250: 0b51 01bd 2a85 013d 4359 0abd 0869 8b3b
00000260: 376a 063d fe2d 18bc 2046 f7bb 513b d9bc
00000270: 5c75 7dbc 5aa3 0abc d042 1abc c8f3 9b3b
00000280: abbb 993d f354 6d3d f250 3dba 79cb 1cbb
00000290: 1773 933c 62fc 473d a1eb 9d3b 7adf dfbd
000002a0: 3467 07bd 1f4a 573a bd53 4f3c 0cd7 e239
000002b0: 75cf ec3a 0417 4dbd baaf fdb9 f3dd 263c
000002c0: d355 8dbc a4f7 063d 7009 cb3c 2f20 503d
000002d0: c14c b6bb a97a 733d d8f4 79bc d100 a43c
000002e0: fb78 f1bb 3ef9 c4bc cc16 1fbd 3d41 ff3c
000002f0: 3d93 b53c 2100 223d 44a3 093d bcf2 55bd
00000300: 8386 a43c 1540 103d 791f 123d 9d20 f3bb
00000310: f6b1 543b 766a c4bb 4c5c 9cbb d31f 15bd
00000320: 99c7 3e3b 5dd6 793c b98a 14bd 7aed aabc
00000330: 07d3 5d3d 70a6 9eba 993d 72bb 1ba2 3abd
00000340: 5058 1c3c e6b0 47bc 6ad9 80bd 0098 2cbc
00000350: 3c09 a3bc c93a e4bc 4c09 9c3c 7588 043c
00000360: 6de1 2a3a 9281 673c 298f 0cbc f8b5 0d3d
00000370: 9a21 6cbc 639d 8b3c ec54 f83c 83c4 1dbd
00000380: e34a 07bb 9f4c 373d a680 ffbb 77b9 febc
00000390: 8979 46bd 22f6 133d 21c6 1d3d bf68 41bc
000003a0: 9a65 9c38 ca9d 063c fb71 843c 40db 0c3c
000003b0: f1ce 433d c345 83bb 65b9 503d 67b4 9b3c
000003c0: b6a8 13bd 4738 f93b be71 a7bc f27b 893d
000003d0: b260 c7bc 91ab fbb9 a200 253d d723 7ebd
000003e0: a254 32bd cb29 f1bd bff7 22bd 7f2d 35bb
000003f0: 7bd2 47bc 9155 123d d533 25bc 70d7 55bb

conv3.bias f4 [64]
-0.009747308 0.0019524771 0.030490749 -0.014386732 0.01787508 0.014746494 0.022723176 -0.03518024
-0.017341066 -0.036790457 -0.009096752 0.029011473 -0.023427349 0.021578431 -0.020391732 -0.034879684
0.0037194528 0.0020004893 0.01716393 0.02588841 0.028825859 -0.030576214 0.009239597 0.03408489
-0.050104495 0.028363772 0.001065204 0.0027056858 0.012456431 -0.018635312 0.010078647 -0.045286335
-0.0034696243 -0.014343092 -0.028534792 -0.024964958 0.035901506 -0.029951194 -0.01440544 0.013262728
-0.0072298236 -0.005953647 -0.015442299 0.008688557 0.036057603 0.029594768 0.0037100979 -0.031176051
0.021432042 0.025249198 -0.034117047 -0.019547245 -0.0110883545 0.00020528473 -0.03375286 -0.0116378395
-0.0039246785 0.0017687539 0.018901143 0.0146056255 0.027489277 0.015289046 -0.022443887 0.02186906
00000000: 2cb3 1fbc 43ea ff3a bcc7 f93c 54b6 6bbc
00000010: c36e 923c 479b 713c f425 ba3c 2819 10bd
00000020: da0e 8ebc 97b1 16bd 8b0a 15bc 78a9 ed3c
00000030: b6ea bfbc 40c5 b03c 900c a7bc 00de 0ebd
00000040: 10c2 733b a41a 033b 5f9b 8c3c ee13 d43c
00000050: 3524 ec3c f87a fabc ae61 173c 999c 0b3d
00000060: 5f3a 4dbd 245b e83c 519e 8b3a e051 313b
00000070: 0f16 4c3c 15a9 98bc e920 253c 2a7e 39bd
00000080: a362 63bb 4aff 6abc ccc1 e9bc 5083 ccbc
00000090: 750d 133d 355c f5bc cb04 6cbc ea4b 593c
000000a0: 28e8 ecbb d016 c3bb b201 7dbc 735a 0e3c
000000b0: 23b1 133d ba70 f23c 1d25 733b eb64 ffbc
000000c0: 4092 af3c 68d7 ce3c 51be 0bbd 8b21 a0bc
000000d0: eeab 35bc b341 5739 7040 0abd a3ac 3ebc
000000e0: 979a 80bb 88d5 e73a 92d6 9a3c 6f4c 6f3c
000000f0: 3131 e13c e87e 7a3c 3edc b7bc be26 b33c

bn3.weight f4 [64]
1.1586976 1.1496779 1.1295646 1.1471599 1.1660187 1.1285802 1.1631569 1.1545426
1.1629791 1.1326941 1.1716523 1.1678852 1.1542593 1.150872 1.1445475 1.1742982
1.1559514 1.1467583 1.1721498 1.1245575 1.1670084 1.1483842 1.159494 1.1553987
1.1057673 1.1096727 1.1639836 1.1457758 1.1486129 1.1694304 1.1325195 1.1781005
1.1281325 1.1407341 1.1414218 1.1434425 1.1375034 1.1683034 1.1752383 1.1686014
1.1411093 1.1287426 1.1632438 1.203589 1.1544343 1.0943166 1.1048198 1.1398003
1.1527863 1.1668706 1.153849 1.1965623 1.1384362 1.1536831 1.1036149 1.1698285
1.0997535 1.1469272 1.1674353 1.169046 1.1499041 1.1532905 1.129442 1.1767441
00000000: 3450 943f a528 933f 9395 903f 23d6 923f
00000010: 1a40 953f 5175 903f 53e2 943f 0dc8 933f
00000020: 80dc 943f 1ffc 903f b4f8 953f 437d 953f
00000030: c5be 933f c64f 933f 8880 923f 674f 963f
00000040: 37f6 933f fac8 923f 0109 963f 80f1 8f3f
00000050: 8860 953f 41fe 923f 4d6a 943f 1be4 933f
00000060: c889 8d3f c109 8e3f 6afd 943f c8a8 923f
00000070: bf05 933f e5af 953f 66f6 903f ffcb 963f
00000080: a566 903f 9303 923f 1c1a 923f 535c 923f
00000090: b699 913f f78a 953f 356e 963f bb94 953f
000000a0: df0f 923f a37a 903f 2ce5 943f 340f 9a3f
000000b0: 81c4 933f 9112 8c3f bc6a 8d3f fae4 913f
000000c0: 808e 933f 045c 953f 53b1 933f f428 993f
000000d0: 47b8 913f e3ab 933f 4143 8d3f f1bc 953f
000000e0: b9c4 8c3f 83ce 923f 856e 953f 4da3 953f
000000f0: 0f30 933f 069f 933f 8e91 903f 8d9f 963f

bn3.bias f4 [64]
0.020584306 -0.00078170135 0.01174621 -0.023694627 -0.024057528 -0.011211435 -0.01437709 -0.016669597
0.0075609293 -0.02501512 0.005163344 0.011388332 0.011276055 0.02658149 0.017015515 0.0202214
-0.004755234 -0.0041849394 0.029350666 0.011402463 -0.010848927 0.026093572 -0.01315863 0.02306412
0.0032482145 0.012615039 -0.009997739 -0.006687366 -0.004915841 0.00938105 -0.0114959795 -0.006580465
0.0012503945 -0.001926092 0.032816503 -0.027067954 -0.0021326481 0.0064796032 0.023095384 0.009843969
-0.015560302 -0.007434232 0.02759325 0.014495372 -0.0025122343 0.0075567653 0.03768115 0.021192387
-0.0016880336 -0.0151680345 0.024782386 0.028181618 0.0035368893 -0.008152112 -0.0094316555 0.0013397537
-0.00038453404 -0.019699315 0.023389252 -0.011527402 0.011515551 0.015074606 -0.004321976 -0.008582089
00000000: 6ba0 a83c 17eb 4cba 2d73 403c 3c1b c2bc
00000010: 4b14 c5bc 2bb0 37bc e38d 6bbc ae8e 88bc
00000020: acc1 f73b 82ec ccbc 4531 a93b 2096 3a3c
00000030: 34bf 383c 6dc1 d93c 1f64 8b3c 59a7 a53c
00000040: cbd1 9bbb d121 89bb cf70 f03c 65d1 3a3c
00000050: b3bf 31bc 30c2 d53c 4b97 57bc f7f0 bc3c
00000060: ffdf 543b 4faf 4e3c 8fcd 23bc b121 dbbb
00000070: 1015 a1bb fab2 193c a259 3cbc f1a0 d7bb
00000080: 47e4 a33a ec74 fcba 996a 063d 9dbd ddbc
00000090: e6c3 0bbb da52 d43b 8832 bd3c 9948 213c
000000a0: a3f0 7ebc dc9a f3bb 3d0b e23c ff7d 6d3c
000000b0: 4ca4 24bb be9e f73b 8d57 1a3d a89b ad3c
000000c0: 0241 ddba 5983 78bc 6e04 cb3c 23dd e63c
000000d0: 28cb 673b 7090 05bc 3b87 1abc ad9a af3a
000000e0: 499b c9b9 7560 a1bc d19a bf3c 6edd 3cbc
000000f0: b9ab 3c3c 7bfb 763c 5d9f 8dbb e49b 0cbc

bn3.running_mean f4 [64]
0.07589448 0.122234255 0.094516814 0.53576297 0.06756146 0.012866629 0.055694897 -0.27741063
0.006287466 0.12795602 -0.033089787 0.07437513 0.13852492 0.13194612 -0.09812183 -0.0113866925
0.1546454 0.13511944 0.010347204 0.28059834 -0.08482313 -0.008046191 0.078987405 0.0027382595
-0.121461846 0.20537782 0.2414975 0.09578386 0.12523034 0.08352109 0.26112986 -0.1414938
-0.102589965 -0.028089643 -0.70469356 0.039624356 -0.031469014 -0.1439216 -0.54598695 -0.026884234
-0.2291161 -0.13122256 -0.08983924 -0.054636378 0.16576923 -0.53054583 -0.26616696 -0.21439815
-0.10563082 -0.03398563 -0.09164919 -0.10045193 -0.00787837 0.04133091 0.19146536 0.14874882
-0.2790007 -0.0182651 -0.19202295 0.07121129 0.031908207 0.115544476 0.3338988 0.07845801
00000000: 916e 9b3d f455 fa3d 0892 c13d c327 093f
00000010: aa5d 8a3d 8ece 523c 5520 643d c408 8ebe
00000020: 1607 ce3b e706 033e 2889 07bd fd51 983d
00000030: 7ad9 0d3e e21c 073e 19f4 c8bd 408f 3abc
00000040: 5d5b 1e3e c05c 0a3e 5287 293c 96aa 8f3e
00000050: c0b7 adbd 2cd4 03bc 26c4 a13d 5f74 333b
00000060: fdc0 f8bd 904e 523e 1f4b 773e 542a c43d
00000070: 623c 003e 1b0d ab3d d0b2 853e c0e3 10be
00000080: b01a d2bd 401c e6bc cc66 34bf 264d 223d
00000090: a7e5 00bd 2f60 13be cdc5 0bbf 533c dcbc
000000a0: 699d 6abe 355f 06be a3fd b7bd 65ca 5fbd
000000b0: 69bf 293e dad1 07bf 0947 88be 308b 5bbe
000000c0: f954 d8bd 8434 0bbd 92b2 bbbd beb9 cdbd
000000d0: 4714 01bc 9a4a 293d 7f0f 443e 9c51 183e
000000e0: 2ed9 8ebe b1a0 95bc aaa1 44be 3ad7 913d
000000f0: 2eb2 023d 95a2 ec3d c9f4 aa3e 98ae a03d

bn3.running_var f4 [64]
0.11291116 0.16079995 0.12002097 0.14781058 0.12853824 0.13512494 0.11255898 0.12581645
0.12262663 0.124636196 0.10462994 0.12771404 0.12187485 0.114049934 0.103691585 0.11884524
0.13410716 0.10105592 0.11296284 0.16475092 0.13858277 0.14340633 0.15584551 0.114242755
0.11141417 0.12956141 0.13337491 0.12587914 0.13440047 0.12539475 0.14544514 0.13055725
0.11404419 0.120752715 0.13846302 0.16147394 0.13448851 0.11913985 0.12141366 0.14465894
0.16352797 0.11688657 0.11901885 0.102771245 0.14912501 0.13530795 0.1556423 0.14909506
0.12496514 0.15128572 0.11428423 0.13305345 0.12134336 0.16909976 0.15196946 0.13508807
0.13036463 0.13991651 0.15143977 0.12437618 0.13631828 0.15088214 0.1282082 0.117337376
00000000: f73d e73d bea8 243e 8ecd f53d a85b 173e
00000010: 879f 033e 315e 0a3e 5385 e63d 07d6 003e
00000020: ac23 fb3d 4341 ff3d 3948 d63d 78c7 023e
00000030: 8599 f93d 0393 e93d 415c d43d 2265 f33d
00000040: 6353 093e 68f6 ce3d 1059 e73d 77b4 283e
00000050: a4e8 0d3e 1cd9 123e f795 1f3e 1bf8 e93d
00000060: 1d2d e43d bfab 043e 6f93 083e 76e6 003e
00000070: 47a0 093e 7b67 003e 92ef 143e cdb0 053e
00000080: 0090 e93d 334d f73d 40c9 0d3e 6d59 253e
00000090: 5bb7 093e 98ff f33d baa7 f83d 7921 143e
000000a0: e073 273e 3a62 ef3d 28c0 f33d bb79 d23d
000000b0: 3ab4 183e 2b8e 0a3e b260 1f3e 60ac 183e
000000c0: b9ed ff3d a5ea 1a3e da0d ea3d 2a3f 083e
000000d0: de82 f83d 7d28 2d3e e29d 1b3e 8754 0a3e
000000e0: 4e7e 053e 4646 0f3e 0713 1b3e f0b8 fe3d
000000f0: 0597 0b3e d980 1a3e 0349 033e 944e f03d

lin1.weight f4 [64, 1024]
0.068661466 0.0026988625 0.0054958253 -0.011888472 -0.05110167 -0.008034029 -0.039676115 0.008715705
-0.045240175 -0.065204516 -0.024005273 -0.078554034 0.033096805 0.010056297 0.055765416 0.016030641
0.030506331 -0.017589396 -0.062388375 0.027640738 0.022588313 -0.034374323 -0.012010222 -0.0043557677
-0.072815455 -0.084243275 -0.07710206 -0.076376446 -0.000348822 0.0045933723 -0.04735884 -0.027535506
0.032657463 0.023295337 -0.008246327 -0.028518766 0.049336463 -0.013597628 0.0638861 0.060321145
0.05636987 -0.008532987 -0.040140584 -0.005014859 0.0021442622 -0.09717729 -0.035986334 0.017793486
-0.0029664885 0.09523677 -0.014125039 0.03434987 0.0035580772 0.008769973 0.012573595 -0.0540364
0.039255716 -0.009801092 0.006588224 -0.039893087 0.026433459 0.05990147 -0.02129585 -0.04314584
-0.047148637 -0.019852748 0.014253679 0.008869528 -0.05656807 0.06071597 -0.023041788 0.031051775
-0.021751722 0.013503161 0.00857303 0.0098180575 -0.0016751599 -0.0026310275 0.043795373 -0.05044561
0.019936794 0.034204423 0.026189702 0.034313377 -0.0087670125 0.046363585 0.020466583 0.03327317
-0.0026578535 0.027951889 0.058072757 0.066120505 -0.012797538 -0.032872334 -0.020316796 -0.025587125
0.030838516 0.0030515564 0.011709057 0.0172898 0.036994673 0.011458875 -0.03907838 -0.067665406
-0.0057238303 0.013203473 0.00010014129 0.05786641 -0.037978318 0.043421812 0.026191337 -0.034340747
-0.021074679 -0.009730473 0.029796546 -0.011979319 0.033852637 -0.06560387 -0.031771787 0.017133461
-0.04811863 -0.068355605 -0.049999233 0.015158053 -0.028200544 -0.0040527475 0.06964732 0.0341805
0.009288902 0.017680017 -0.016949879 -0.009962423 0.0011668156 0.016845588 0.01608331 -0.044183634
-0.021135552 0.044011526 0.009834423 -0.0175197 0.017981308 0.03787795 -0.023155374 0.009158886
-0.04550943 0.031221325 -0.03406711 0.034719255 -0.0041650254 0.038249724 -0.003963276 0.014047664
0.05522325 0.057618946 0.015094999 0.029266948 0.08345666 0.032427046 0.021670647 -0.009603936
0.014268875 -0.051288854 0.05263044 -0.032074116 0.0012545245 0.06141303 0.031204803 0.005831444
0.05954115 -0.02119734 -0.0446654 0.02053547 -0.026056739 -0.015182058 -0.11379259 -0.08124276
0.015938194 0.007591554 0.06487498 -0.022630297 0.041474503 0.04390772 -0.05808392 -0.018050937
-0.04851605 0.053258337 -0.031052167 -0.045917843 0.07650563 0.028209025 0.012937249 -0.00608472
-0.054725133 -0.10582783 -0.06552947 0.009247996 -0.019975148 -0.028697822 0.0041939938 0.012629595
-0.04375881 -0.036795545 -0.030589387 -0.018100185 0.027138148 -0.09302919 0.05871171 0.010250189
0.048767835 0.016685618 0.012734819 -0.012838688 0.0014226459 -0.063976884 -0.037418336 -0.07724205
0.034102622 0.0058715823 0.0147937015 -0.0116353715 0.0027374413 0.03132597 0.068746544 0.000894034
-0.005791642 0.062452182 0.036181632 0.021187263 -0.024304492 0.095222756 0.0037157433 -0.04316709
0.043577783 -0.02517009 -0.006739658 0.010590386 0.006123123 0.03215933 0.020423284 0.055385083
0.0027306369 0.018739635 0.012574581 0.017630322 -0.02000381 -0.018156532 -0.014400552 -0.0044634067
0.043541636 0.0043873265 -0.08117259 -0.057624336 -0.040173404 -0.046121657 -0.033919856 -0.016703796
00000000: 629e 8c3d 66df 303b 5316 b43b dec7 42bc
00000010: fc4f 51bd 29a1 03bc 6c83 22bd 51cc 0e3c
00000020: c34d 39bd f289 85bd b5a6 c4bc f0e0 a0bd
00000030: 8490 073d 2bc3 243c 476a 643d b152 833c
00000040: 6ae8 f93c a317 90bc f48a 7fbd d46e e23c
00000050: 200b b93c 17cc 0cbd 86c6 44bc d4ba 8ebb
00000060: 4520 95bd bd87 acbd afe7 9dbd 416b 9cbd
00000070: 19e2 b6b9 0084 963b 58fb 41bd 2492 e1bc
00000080: d5c3 053d ddd5 be3c 9a1b 07bc 30a0 e9bc
00000090: 0815 4a3d 96c8 5ebc b7d6 823d 4e13 773d
000000a0: 18e4 663d f1cd 0bbc 746a 24bd b053 a4bb
000000b0: c086 0c3b e304 c7bd 6866 13bd a5c3 913c
000000c0: 6b69 42bb 7f0b c33d b56c 67bc 73b2 0c3d
000000d0: a12e 693b efaf 0f3c 7b01 4e3c 4655 5dbd
000000e0: 9aca 203d c294 20bc 07e2 d73b ef66 23bd
000000f0: fb8a d83c 3e5b 753d a274 aebc b1b9 30bd
00000100: ee1e 41bd 3ba2 a2bc 4388 693c 7f51 113c
00000110: ecb3 67bd 4fb1 783d 22c2 bcbc 4b60 fe3c
00000120: ab30 b2bc 5d3c 5d3c e575 0c3c ebdb 203c
00000130: 0a91 dbba 516d 2cbb c762 333d 0ea0 4ebd
00000140: 7d52 a33c f019 0c3d c98b d63c 2f8c 0c3d
00000150: 84a3 0fbc bee7 3d3d 89a9 a73c 7349 083d
00000160: 622f 2ebb 5cfb e43c b3dd 6d3d 306a 873d
00000170: c4ac 51bc 24a5 06bd 696f a6bc 179c d1bc
00000180: 0ea1 fc3c 9ffc 473b 58d7 3f3c 57a3 8d3c
00000190: ba87 173d 01be 3b3c a710 20bd 2994 8abd
000001a0: f88e bbbb 6153 583c f202 d238 5405 6d3d
000001b0: 278f 1bbd 12db 313d 378f d63c e2a8 0cbd
000001c0: cea4 acbc 906c 1fbc e317 f43c e844 44bc
000001d0: 10a9 0a3d 525b 86bd 2223 02bd 795b 8c3c
000001e0: 0a18 45bd 06fe 8bbd ffcb 4cbd 7b59 783c
000001f0: d404 e7bc e9cc 84bb 41a3 8e3d da00 0c3d
00000200: 7b30 183c afd5 903c 79da 8abc 6e39 23bc
00000210: d6ef 983a c2ff 893c 25c1 833c e6f9 34bd
00000220: 7724 adbc 6e45 343d 8f20 213c 7985 8fbc
00000230: 894d 933c e925 1b3d 57b0 bdbc 270f 163c
00000240: 1968 3abd ddc3 ff3c f489 0bbd c735 0e3d
00000250: c47a 88bb beab 1c3d 5ede 81bb 2c28 663c
00000260: c631 623d d801 6c3d 0451 773c 3dc1 ef3c
00000270: 53eb aa3d 39d2 043d a486 b13c d459 1dbc
00000280: 00c8 693c 4314 52bd 0493 573d 2660 03bd
00000290: db6e a43a 3b8c 7b3d 37a1 ff3c b315 bf3b
000002a0: 6ce1 733d 0ba6 adbc 11f3 36bd 013a a83c
000002b0: f174 d5bc 2bbe 78bc 170c e9bd 9b62 a6bd
000002c0: d190 823c 92c2 f83b 2cdd 843d 2c63 b9bc
000002d0: 2be1 293d 95d8 333d 68e9 6dbd 8fdf 93bc
000002e0: c4b8 46bd 6a25 5a3d 1d61 febc 5914 3cbd
000002f0: fcae 9c3d 9d16 e73c c1f6 533c 5562 c7bb
00000300: 7627 60bd 43bc d8bd 5134 86bd e884 173c
00000310: eca2 a3bc b217 ebbc c56d 893b 5cec 4e3c
00000320: 703c 33bd edb6 16bd 9896 fabc d746 94bc
00000330: d250 de3c 1786 bebd b17b 703d 69f0 273c
00000340: c8c0 473d 47b0 883c b4a5 503c 5c59 52bc
00000350: 1378 ba3a 5006 83bd f843 19bd 1431 9ebd
00000360: 31af 0b3d 6766 c03b 4861 723c 49a2 3ebc
00000370: a566 333b a94f 003d fdca 8c3d 9b5d 6a3a
00000380: d0c7 bdbb dccd 7f3d 3133 143d e990 ad3c
00000390: 371a c7bc 2604 c33d d483 733b f9cf 30bd
000003a0: 9e7e 323d 8131 cebc 59d8 dcbb 4c83 2d3c
000003b0: 7ba4 c83b 80b9 033d bb4e a73c 78db 623d
000003c0: 7cf4 323b dd83 993c 9e05 4e3c 776d 903c
000003d0: 08df a3bc 02bd 94bc 4bf0 6bbc c541 92bb
000003e0: b758 323d 90c3 8f3b d13d a6bd 7f07 6cbd
000003f0: de8c 24bd 10ea 3cbd 8cef 0abd 66d6 88bc

lin1.bias f4 [64]
0.0037947558 -0.033223316 -0.019027876 0.0011157426 -0.018531997 -0.009142845 0.0063232942 0.00047310753
-0.026232645 -0.006877859 0.01309835 -0.010078468 0.004350758 0.0038755706 -0.021040866 0.01721241
0.027693108 0.0026528307 -0.006375603 -0.0030725773 0.0022472248 0.031690802 -0.020604938 -0.034840405
0.009641488 -0.0116531905 0.012929772 0.030111885 0.012186851 0.039767444 -0.007124345 0.027689612
0.017732676 -0.0010591594 -0.036962308 0.0022308128 -0.049364176 -0.008413797 0.029838398 0.027633814
0.027815988 -0.0067718173 0.013854392 -0.037889607 -0.03680239 -0.019233093 -0.013678598 0.009174466
-0.009224996 0.004495141 -0.00030841198 0.02758824 0.0049390085 0.002406574 -0.006579692 0.023149176
0.014814611 0.026121506 0.009175338 -0.019429076 0.01329992 -0.026733974 -0.03380228 0.011749937
00000000: 70b1 783b 2c15 08bd 59e0 9bbc 1c3e 923a
00000010: 6ad0 97bc dfcb 15bc a333 cf3b 6b0b f839
00000020: d8e5 d6bc aa5f e1bb 769a 563c 2920 25bc
00000030: ce90 8e3b 49fd 7d3b e55d acbc 0a01 8d3c
00000040: a8dc e23c 1ddb 2d3b 6fea d0bb 4b5d 49bb
00000050: 2d46 133b 37ce 013d b0cb a8bc d0b4 0ebd
00000060: 55f7 1d3c 06ed 3ebc 65d7 533c 33ad f63c
00000070: 5cab 473c 30e3 223d 5673 e9bb 53d5 e23c
00000080: 1e44 913c 7ed3 8aba ca65 17bd d432 123b
00000090: 1732 4abd 06da 09bc a86f f43c 4f60 e23c
000000a0: 5bde e33c 1fe6 ddbb 88fd 623c 2232 1bbd
000000b0: 1abe 16bd b88e 9dbc 331c 60bc 8050 163c
000000c0: 7024 17bc fa4b 933b 5bb2 a1b9 bc00 e23c
000000d0: 68d7 a13b 9db7 1d3b 759a d7bb 57a3 bd3c
000000e0: fbb8 723c c5fc d53c 2854 163c ba29 9fbc
000000f0: e8e7 593c 3501 dbbc 4274 0abd cf82 403c

lin2.weight f4 [11, 64]
0.18364218 -0.13387434 0.056143243 0.1325482 0.2163137 0.03426036 -0.15611717 -0.10901541
-0.09913387 -0.12597743 0.18948163 0.07201609 -0.16844282 -0.106612325 -0.15960409 0.107465
-0.14535415 -0.010223341 0.17990114 0.06745793 -0.10190218 0.12226673 0.048244752 0.025469262
-0.14755265 0.019916166 -0.20666154 0.18023579 0.2412842 -0.059711013 0.07811413 0.078840435
-0.021074157 -0.123734355 -0.0034342806 -0.10572573 -0.036056567 0.058849085 -0.20331144 -0.06492661
0.091149464 -0.17632605 0.18228158 0.11047576 -0.052987296 -0.2511332 -0.10227861 0.16094114
-0.14586915 -0.18489522 -0.101235755 -0.2201012 -0.13462612 0.16514918 0.20727281 -0.17091466
-0.10092152 0.014529253 0.19888026 -0.033039503 -0.15016297 0.06599674 -0.10621356 -0.16856474
0.14381902 -0.106356084 -0.20276466 0.15310952 -0.1059117 0.16114756 0.19619828 0.15191686
-0.095709205 0.020068536 -0.13322906 0.23504613 -0.13534735 -0.09118756 0.01971317 0.067601345
-0.16544937 0.20070188 0.009190424 0.11430545 0.22655003 0.08736737 -0.031490713 -0.20362712
0.18708162 -0.011289232 -0.15952492 -0.012158477 -0.103994705 0.30392736 0.1861469 -0.029941656
-0.09541842 -0.12437893 0.17040828 -0.17391756 0.11180746 -0.20864241 0.20133619 0.12724276
0.16306579 0.17069712 -0.0606239 0.2072396 0.1908263 -0.12159823 0.17934936 0.06438712
-0.16945165 -0.008412776 -0.11991626 0.21899092 -0.21004175 0.13861549 0.11070136 0.19850002
0.15443604 -0.17844565 0.2312384 -0.093903586 0.20585719 0.115124725 0.03192188 0.093538955
-0.21245198 -0.05761381 -0.008013689 0.13113195 -0.03692563 -0.14040838 0.224344 -0.11740366
0.20402391 -0.1549318 0.20067035 0.08624456 -0.14892064 -0.14451605 0.0034866175 -0.13104138
0.068817124 0.0669089 -0.15530951 -0.14293398 -0.075298205 -0.12956662 0.18223274 0.122282185
-0.065608256 -0.17389113 0.10657588 -0.07591305 0.15820424 -0.082267515 0.2466003 0.11074882
-0.2546901 -0.11067365 0.1852833 -0.191286 0.06716831 6.4197266e-05 -0.24678317 -0.112186514
-0.13669282 0.21776994 0.19915146 -0.060660753 -0.056105487 0.20759451 -0.076808445 0.17425984
0.114652745 0.028551212 0.129064 -0.09784688 0.20021689 0.037502654 -0.114941955 0.11489117
-0.1575849 0.116042696 -0.17372409 -0.012150664 -0.13265431 0.07764499 0.01198242 -0.11445287
0.17848684 -0.02158915 -0.101746276 -0.117315 -0.106066495 -0.16605191 -0.15796703 -0.0270608
-0.0567557 -0.124739334 -0.13471216 0.20702106 0.19448201 -0.053934857 0.10212333 0.07999872
0.04796378 0.14588939 -0.11225866 -0.09079132 -0.078030944 0.120240964 0.023307819 -0.16369036
-0.19299234 -0.1378822 0.11437642 0.042402122 -0.117856115 -0.19446294 -0.20310524 0.103331305
0.20845573 0.07706777 -0.2045463 -0.07077198 0.046886403 0.08097317 0.0635227 0.018165236
-0.14349297 0.1976881 -0.17313029 -0.10112051 -0.063433744 -0.11234036 0.0025079777 0.14747691
0.11021095 0.04698232 0.0964273 -0.08206384 0.07012993 -0.14602879 -0.13032895 0.11834367
0.032968692 -0.097713515 -0.08623222 0.12954241 -0.008593771 0.07630163 -0.1375117 -0.06541487
00000000: b20c 3c3e 5b16 09be 75f6 653d b7ba 073e
00000010: 5781 5d3e 9754 0c3d 2edd 1fbe 7943 dfbd
00000020: b306 cbbd 3a00 01be 7907 423e 2c7d 933d
00000030: 467c 2cbe 9057 dabd 416f 23be 9c16 dc3d
00000040: b8d7 14be cd7f 27bc 0138 383e 6227 8a3d
00000050: 17b2 d0bd fb66 fa3d 4a9c 453d eaa4 d03c
00000060: 0b18 17be 3a27 a33c 159f 53be bb8f 383e
00000070: 3513 773e 8993 74bd 4dfa 9f3d 1877 a13d
00000080: b6a3 acbc 7068 fdbd ab11 61bb bb86 d8bd
00000090: 0db0 13bd bd0b 713d e030 50be 3ef8 84bd
000000a0: 92ac ba3d d18e 34be 06a8 3a3e 1e41 e23d
000000b0: 3509 59bd 8894 80be 7377 d1bd c1cd 243e
000000c0: b95e 15be 2c55 3dbe b154 cfbd 3562 61be
000000d0: 6edb 09be de1c 293e 533f 543e 4104 2fbe
000000e0: f1af cebd 1b0c 6e3c 44a7 4b3e 6e54 07bd
000000f0: 52c4 19be 4c29 873d 7f86 d9bd 3c9c 2cbe
00000100: 4b45 133e 38d1 d9bd 8aa1 4fbe bec8 1c3e
00000110: 3ce8 d8bd de03 253e 34e8 483e 1890 1b3e
00000120: 3003 c4bd c566 a43c 336d 08be efaf 703e
00000130: 7f98 0abe 8bc0 babd 847d a13c 9372 8a3d
00000140: 8f6b 29be cb84 4d3e 6f93 163c fa18 ea3d
00000150: bbfc 673e aaed b23d 68fc 00bd a183 50be
00000160: 5392 3f3e 79f6 38bc 805a 23be 5934 47bc
00000170: 2dfb d4bd 5e9c 9b3e 4b9d 3e3e 3448 f5bc
00000180: bc6a c3bd 61ba febd 827f 2e3e 7217 32be
00000190: 4ffb e43d 5ba6 55be 132b 4e3e ed4b 023e
000001a0: b8fa 263e 3acb 2e3e c450 78bd 9e36 543e
000001b0: f867 433e 7e08 f9bd 5ca7 373e 65dd 833d
000001c0: bc84 2dbe bdd5 09bc a896 f5bd 283f 603e
000001d0: 2f15 57be 38f1 0d3e 65b7 e23d 9743 4b3e
000001e0: 7b24 1e3e 75ba 36be c2c9 6c3e 8650 c0bd
000001f0: 3acc 523e 83c6 eb3d 84c0 023d 5a91 bf3d
00000200: 038d 59be 75fc 6bbd d94b 03bc 7447 063e
00000210: 543f 17bd 37c7 0fbe 6fba 653e 5571 f0bd
00000220: a5eb 503e 71a6 1ebe 877c 4d3e fda0 b03d
00000230: a77e 18be 04fc 13be bc7f 643b b62f 06be
00000240: feef 8c3d 8907 893d 7509 1fbe 495d 12be
00000250: f235 9abd 1dad 04be 389b 3a3e 156f fa3d
00000260: 9f5d 86bd 8410 32be 7444 da3d 4d78 9bbd
00000270: 4b00 223e df7b a8bd ca84 7c3e 47d0 e23d
00000280: be66 82be dea8 e2bd e8ba 3d3e 7ae0 43be
00000290: 8a8f 893d a5a1 8638 bab4 7cbe 0bc2 e5bd
000002a0: 34f9 0bbe 15ff 5e3e 5cee 4b3e 6977 78bd
000002b0: dece 65bd a893 543e bf4d 9dbd 2c71 323e
000002c0: 0fcf ea3d 3be4 e93c 5a29 043e f263 c8bd
000002d0: a805 4d3e 629c 193d b066 ebbd 104c eb3d
000002e0: f05d 21be cba7 ed3d bae4 31be 9413 47bc
000002f0: 88d6 07be 5604 9f3d ea51 443c 4466 eabd
00000300: 41c5 363e bbdb b0bc 5a60 d0bd d942 f0bd
00000310: 6439 d9bd 8309 2abe 1cc2 21be 9cae ddbc
00000320: aa78 68bd 5677 ffbd fcf1 09be 54fd 533e
00000330: 4b26 473e ccea 5cbd 0926 d13d 5ed6 a33d
00000340: ab75 443d 0764 153e dee7 e5bd cdf0 b9bd
00000350: b0ce 9fbd e540 f63d 0af0 be3c 729e 27be
00000360: c99f 45be fe30 0dbe 2f3e ea3d d9ad 2d3d
00000370: 8c5e f1bd 4b21 47be d2fa 4fbe 5d9f d33d
00000380: 6b75 553e b5d5 9d3d 9674 51be e6f0 90bd
00000390: f50b 403d 43d5 a53d 3018 823d 43cf 943c
000003a0: d2ef 12be c06e 4a3e 1149 31be 4518 cfbd
000003b0: 8de9 81bd b412 e6bd e25c 243b 3004 173e
000003c0: 47b6 e13d 8870 403d ad7b c53d 1611 a8bd
000003d0: 48a0 8f3d 9288 15be f474 05be 2b5e f23d
000003e0: 2e0a 073d 061e c8bd 859a b0bd c4a6 043e
000003f0: e3cc 0cbc 0744 9c3d decf 0cbe 3bf8 85bd

lin2.bias f4 [11]
0.08615004 -0.07695523 0.03971529 0.10095343 -0.09982175 0.10457273 -0.031869467 -0.011390135
0.056262337 0.11669238 -0.16722985
00000000: 6f6f b03d b49a 9dbd 80ac 223d acc0 ce3d
00000010: 586f ccbd 3a2a d63d 8f89 02bd b09d 3abc
00000020: 5673 663d 6afc ee3d 4d3e 2bbe
